…
================================================================================
\end_layout

\begin_layout Plain Layout

Layer (type (var_name))                                      Input Shape
               Output Shape              Param #                   Param
 %
\end_layout

\begin_layout Plain Layout

================================================================================
================================================================================
\end_layout

\begin_layout Plain Layout

EFSNetSeg (EFSNetSeg)                                        [1, 1, 256,
 256]          [1, 3, 256, 256]          --                            
 --
\end_layout

\begin_layout Plain Layout

├─Encoder (encoder)                                          [1, 1, 256,
 256]          [1, 64, 64, 64]           --                            
 --
\end_layout

\begin_layout Plain Layout

│    └─InitialBlock (initial_block)                          [1, 1, 256,
 256]          [1, 16, 128, 128]         166                         0.09%
\end_layout

\begin_layout Plain Layout

│    └─DownsamplingBlock (downsampling_block1)               [1, 16, 128,
 128]         [1, 64, 64, 64]           5,699                       3.17%
\end_layout

\begin_layout Plain Layout

│    └─Sequential (factorized_blocks)                        [1, 64, 64,
 64]           [1, 64, 64, 64]           15,244                      8.47%
\end_layout

\begin_layout Plain Layout

│    └─DownsamplingBlock (downsampling_block2)               [1, 64, 64,
 64]           [1, 128, 32, 32]          30,339                     16.86%
\end_layout

\begin_layout Plain Layout

│    └─Sequential (super_sdc_blocks)                         [1, 128, 32,
 32]          [1, 128, 32, 32]          109,584                    60.91%
\end_layout

\begin_layout Plain Layout

├─Decoder (decoder)                                          [1, 64, 64,
 64]           [1, 16, 128, 128]         --                            
 --
\end_layout

\begin_layout Plain Layout

│    └─UpsamplingBlock (upsample_module1)                    [1, 128, 32,
 32]          [1, 64, 64, 64]           12,418                      6.90%
\end_layout

\begin_layout Plain Layout

│    └─Sequential (shufflenet1)                              [1, 64, 64,
 64]           [1, 64, 64, 64]           4,256                       2.37%
\end_layout

\begin_layout Plain Layout

│    └─UpsamplingBlock (upsample_module2)                    [1, 64, 64,
 64]           [1, 16, 128, 128]         1,314                       0.73%
\end_layout

\begin_layout Plain Layout

│    └─Sequential (shufflenet2)                              [1, 16, 128,
 128]         [1, 16, 128, 128]         456                         0.25%
\end_layout

\begin_layout Plain Layout

├─ConvTranspose2d (segment)                                  [1, 16, 128,
 128]         [1, 3, 256, 256]          435                         0.24%
\end_layout

\begin_layout Plain Layout

================================================================================
================================================================================
\end_layout

\end_inset


\end_layout

\begin_layout Plain Layout
\begin_inset Caption Standard

\begin_layout Plain Layout
Esquema de la EFSNet con parámetros por bloque.
…
